…
<pre><code>ValueError: Input 0 of layer dense_10 is incompatible with the layer: expected axis -1 of input shape to have value 512 but received input with shape (None, 128)
</code></pre>
<p>Here the model summaray:</p>
<pre><code>Layer (type)                    Output Shape         Param #     Connected to                     
==================================================================================================
input_13 (InputLayer)           [(None, 28, 28, 1)]  0                                            
__________________________________________________________________________________________________
batch_normalization_72 (BatchNo (None, 28, 28, 1)    4           input_13[0][0]                   
__________________________________________________________________________________________________
conv2d_120 (Conv2D)             (None, 28, 28, 32)   1600        batch_normalization_72[0][0]     
__________________________________________________________________________________________________
conv2d_121 (Conv2D)             (None, 28, 28, 32)   50208       conv2d_120[0][0]                 
__________________________________________________________________________________________________
batch_normalization_73 (BatchNo (None, 28, 28, 32)   128         conv2d_121[0][0]                 
__________________________________________________________________________________________________
max_pooling2d_36 (MaxPooling2D) (None, 14, 14, 32)   0           batch_normalization_73[0][0]     
__________________________________________________________________________________________________
conv2d_122 (Conv2D)             (None, 14, 14, 32)   25632       max_pooling2d_36[0][0]           
__________________________________________________________________________________________________
conv2d_123 (Conv2D)             (None, 14, 14, 32)   25632       conv2d_122[0][0]                 
__________________________________________________________________________________________________
conv2d_125 (Conv2D)             (None, 14, 14, 32)   9248        max_pooling2d_36[0][0]           
__________________________________________________________________________________________________
conv2d_124 (Conv2D)             (None, 14, 14, 32)   25632       conv2d_123[0][0]                 
__________________________________________________________________________________________________
batch_normalization_75 (BatchNo (None, 14, 14, 32)   128         conv2d_125[0][0]                 
__________________________________________________________________________________________________
batch_normalization_74 (BatchNo (None, 14, 14, 32)   128         conv2d_124[0][0]                 
__________________________________________________________________________________________________
add_24 (Add)                    (None, 14, 14, 32)   0           batch_normalization_75[0][0]     
                                                                 batch_normalization_74[0][0]     
__________________________________________________________________________________________________
activation_24 (Activation)      (None, 14, 14, 32)   0           add_24[0][0]                     
__________________________________________________________________________________________________
max_pooling2d_37 (MaxPooling2D) (None, 7, 7, 32)     0           activation_24[0][0]              
__________________________________________________________________________________________________
conv2d_126 (Conv2D)             (None, 7, 7, 32)     25632       max_pooling2d_37[0][0]           
__________________________________________________________________________________________________
conv2d_127 (Conv2D)             (None, 7, 7, 32)     25632       conv2d_126[0][0]                 
__________________________________________________________________________________________________
conv2d_129 (Conv2D)             (None, 7, 7, 32)     9248        max_pooling2d_37[0][0]           
__________________________________________________________________________________________________
conv2d_128 (Conv2D)             (None, 7, 7, 32)     25632       conv2d_127[0][0]                 
__________________________________________________________________________________________________
batch_normalization_77 (BatchNo (None, 7, 7, 32)     128         conv2d_129[0][0]                 
__________________________________________________________________________________________________
batch_normalization_76 (BatchNo (None, 7, 7, 32)     128         conv2d_128[0][0]                 
__________________________________________________________________________________________________
add_25 (Add)                    (None, 7, 7, 32)     0           batch_normalization_77[0][0]     
                                                                 batch_normalization_76[0][0]     
__________________________________________________________________________________________________
activation_25 (Activation)      (None, 7, 7, 32)     0           add_25[0][0]                     
__________________________________________________________________________________________________
max_pooling2d_38 (MaxPooling2D) (None, 4, 4, 32)     0           activation_25[0][0]              
__________________________________________________________________________________________________
flatten_12 (Flatten)            (None, 512)          0           max_pooling2d_38[0][0]           
__________________________________________________________________________________________________
dense_24 (Dense)                (None, 128)          65664       flatten_12[0][0]                 
__________________________________________________________________________________________________
dropout_12 (Dropout)            (None, 128)          0           dense_24[0][0]                   
__________________________________________________________________________________________________
dense_25 (Dense)                (None, 10)           1290        dropout_12[0][0]                 
==================================================================================================
Total params: 291,694
Trainable params: 291,372
Non-trainable params: 322
__________________________________________________________________________________________________
</code></pre>
<p>I did not convert the labels with with to_categorical function from the karas util package. But why is the exception, the input of the dense layer is wrong? And why does the training work?</p>
…
TypeError: sizing_executor_factory() got an unexpected keyword argument 'clients_per_thread'
</code></pre>
<p>I believe that the problem is with the model, maybe it's too big:</p>
<pre><code>Model: &quot;model&quot;
__________________________________________________________________________________________________
Layer (type)                    Output Shape         Param #     Connected to
==================================================================================================
input_1 (InputLayer)            [(None, 10)]         0
__________________________________________________________________________________________________
embedding (Embedding)           (None, 10, 300)      17334000    input_1[0][0]
__________________________________________________________________________________________________
bi_lstm_0 (Bidirectional)       (None, 10, 256)      439296      embedding[0][0]
__________________________________________________________________________________________________
bi_lstm_1 (Bidirectional)       [(None, 10, 256), (N 394240      bi_lstm_0[0][0]
__________________________________________________________________________________________________
concatenate (Concatenate)       (None, 256)          0           bi_lstm_1[0][1]
                                                                 bi_lstm_1[0][3]
__________________________________________________________________________________________________
attention (Attention)           ((None, 256), (None, 5151        bi_lstm_1[0][0]
__________________________________________________________________________________________________
dense_3 (Dense)                 (None, 20)           5140        attention[0][0]
__________________________________________________________________________________________________
dropout (Dropout)               (None, 20)           0           dense_3[0][0]
__________________________________________________________________________________________________
dense_4 (Dense)                 (None, 3)            63          dropout[0][0]
==================================================================================================
Total params: 18,177,890
Trainable params: 843,890
Non-trainable params: 17,334,000
</code></pre>
<p>Do you have any suggestions?</p>
<p>Currently, I don't get the OOM error only when I run federated learning with less than 12 clients.</p>
<p>Logs:</p>
<pre><code>2021-01-24 16:09:00.752433: I tensorflow/core/common_runtime/bfc_allocator.cc:1010] Stats:
…
